…
 Weights &amp; Biases: run &#39;pip install wandb&#39; to automatically track and visualize YOLOv5 ðŸš€ runs (RECOMMENDED) TensorBoard: Start with &#39;tensorboard --logdir yolov5_runs/train&#39;, view at http://localhost:6006/ Obtaining new sparse zoo credentials token Getting signed url for c13e55cb-dd6c-4492-a079-8986af0b65e6/model.pt Downloading model file model.pt to /root/.cache/sparsezoo/c13e55cb-dd6c-4492-a079-8986af0b65e6/pytorch/model.pt downloading...: 100% 14.1M/14.1M [00:00&lt;00:00, 55.0MB/s] Overriding model.yaml nc=80 with nc=1 from n params module arguments 0 -1 1 3520 yolov5.models.common.Focus [3, 32, 3] 1 -1 1 18560 yolov5.models.common.Conv [32, 64, 3, 2] 2 -1 1 18816 yolov5.models.common.C3 [64, 64, 1] 3 -1 1 73984 yolov5.models.common.Conv [64, 128, 3, 2] 4 -1 3 156928 yolov5.models.common.C3 [128, 128, 3] 5 -1 1 295424 yolov5.models.common.Conv [128, 256, 3, 2] 6 -1 3 625152 yolov5.models.common.C3 [256, 256, 3] 7 -1 1 1180672 yolov5.models.common.Conv [256, 512, 3, 2] 8 -1 1 656896 yolov5.models.common.SPP [512, 512, [5, 9, 13]] 9 -1 1 1182720 yolov5.models.common.C3 [512, 512, 1, False] 10 -1 1 131584 yolov5.models.common.Conv [512, 256, 1, 1] 11 -1 1 0 torch.nn.modules.upsampling.Upsample [None, 2, &#39;nearest&#39;] 12 [-1, 6] 1 0 yolov5.models.common.Concat [1] 13 -1 1 361984 yolov5.models.common.C3 [512, 256, 1, False] 14 -1 1 33024 yolov5.models.common.Conv [256, 128, 1, 1] 15 -1 1 0 torch.nn.modules.upsampling.Upsample [None, 2, &#39;nearest&#39;] 16 [-1, 4] 1 0 yolov5.models.common.Concat [1] 17 -1 1 90880 yolov5.models.common.C3 [256, 128, 1, False] 18 -1 1 147712 yolov5.models.common.Conv [128, 128, 3, 2] 19 [-1, 14] 1 0 yolov5.models.common.Concat [1] 20 -1 1 296448 yolov5.models.common.C3 [256, 256, 1, False] 21 -1 1 590336 yolov5.models.common.Conv [256, 256, 3, 2] 22 [-1, 10] 1 0 yolov5.models.common.Concat [1] 23 -1 1 1182720 yolov5.models.common.C3 [512, 512, 1, False] 24 [17, 20, 23] 1 16182 yolov5.models.yolo.Detect [1, [[10, 13, 16, 30, 33, 23], [30, 61, 62, 45, 59, 119], [116, 90, 156, 198, 373, 326]], [128, 256, 512]] overriding activations in model to Hardswish YOLOv5s summary: 283 layers, 7063542 parameters, 7063542 gradients, 16.5 GFLOPs Transferred 354/361 items from /root/.cache/sparsezoo/c13e55cb-dd6c-4492-a079-8986af0b65e6/pytorch
…
